test_data/training_test/training_network.onnx (onnx, 1111 bytes, 4 tensors)

conv.weight f4 [4, 1, 4]
0	0xbe9651b4	-0.2935921
1	0xbea98370	-0.3310809
2	0xbe181d38	-0.14854896
3	0xbe87c6ae	-0.26518768
4	0xbeb3e0a4	-0.35132325
5	0x3e013ca0	0.12620783
6	0x3def0ba0	0.11672139
7	0xbe4370a8	-0.19085944
8	0x3d9889a0	0.07448125
9	0x3dcec800	0.10096741
10	0xbef6a1bc	-0.4817027
11	0x3ec0d2b8	0.37660766
12	0xbe144fa0	-0.144835
13	0xbeeeed8e	-0.46665615
14	0xbe4dc5b8	-0.20094955
15	0xbe2bcc7c	-0.16777223

conv.bias f4 [4]
0	0x3e740d40	0.2383318
1	0xbedcdbb4	-0.4313637
2	0xbe515ecc	-0.20446318
3	0x3e5e1bc8	0.21690285

fc.weight f4 [2, 8]
0	0x3eaeea97	0.34163353
1	0x3e5919b5	0.21201213
2	0xbe42a41a	-0.19007912
3	0xbe703c4d	-0.23460503
4	0x3e88e930	0.26740408
5	0xbe586e67	-0.21135865
6	0x3e17a65f	0.1480956
7	0xbde5f879	-0.11229033
8	0xbe4dc427	-0.20094357
9	0x3caae129	0.020859318
10	0x3d14d514	0.03633602
11	0x3e882ebf	0.26598164
12	0x3c02a133	0.007973003
13	0xbe7e5c94	-0.24840003
14	0x3e3510fb	0.17682259
15	0x3dfa5626	0.12223463

fc.bias f4 [2]
0	0xbdbde1d5	-0.0927159
1	0x3d0325df	0.03201854
